…
2026-04-03 04:06:10 [TAPT] INFO - Building TAPT model
2026-04-03 04:06:10 [TAPT] INFO - Loading KANO checkpoint: ./dumped/pretrained_graph_encoder/original_CMPN_0623_1350_14000th_epoch.pkl
2026-04-03 04:06:10 [TAPT] INFO - KANO encoder weights loaded: 1,932,300 parameters
2026-04-03 04:06:10 [TAPT] DEBUG - Missing keys: 17
2026-04-03 04:06:10 [TAPT] INFO - TAPT model built with prompt_dim=256
2026-04-03 04:06:10 [TAPT] DEBUG - MoleculeModel(
  (sigmoid): Sigmoid()
  (encoder): CMPNAdapter(
    (cmpn): CMPN(
      (encoder): CMPNEncoder(
        (dropout_layer): Dropout(p=0.0, inplace=False)
        (act_func): ReLU()
        (W_i_atom): Linear(in_features=133, out_features=300, bias=False)
        (W_i_bond): Linear(in_features=147, out_features=300, bias=False)
        (W_h_atom): Linear(in_features=447, out_features=300, bias=False)
        (W_h_0): Linear(in_features=300, out_features=300, bias=False)
        (W_h_1): Linear(in_features=300, out_features=300, bias=False)
        (W_o): Linear(in_features=600, out_features=300, bias=True)
        (gru): BatchGRU(
          (gru): GRU(300, 300, batch_first=True, bidirectional=True)
        )
        (lr): Linear(in_features=900, out_features=300, bias=False)
      )
    )
    (encoder): CMPNEncoder(
      (dropout_layer): Dropout(p=0.0, inplace=False)
      (act_func): ReLU()
      (W_i_atom): Linear(in_features=133, out_features=300, bias=False)
      (W_i_bond): Linear(in_features=147, out_features=300, bias=False)
      (W_h_atom): Linear(in_features=447, out_features=300, bias=False)
      (W_h_0): Linear(in_features=300, out_features=300, bias=False)
      (W_h_1): Linear(in_features=300, out_features=300, bias=False)
      (W_o): Linear(in_features=600, out_features=300, bias=True)
      (gru): BatchGRU(
        (gru): GRU(300, 300, batch_first=True, bidirectional=True)
      )
      (lr): Linear(in_features=900, out_features=300, bias=False)
    )
  )
  (ffn): Sequential(
    (0): Dropout(p=0.0, inplace=False)
    (1): Linear(in_features=300, out_features=300, bias=True)
    (2): ReLU()
    (3): Dropout(p=0.0, inplace=False)
    (4): Linear(in_features=300, out_features=1, bias=True)
  )
  (tapt_module): TAPTPromptModule(
    (task_embed_layer): TaskEmbeddingLayer(
      (task_embed): Embedding(1, 128)
    )
    (cross_attn): CrossAttentionModule(
      (fg_proj): Linear(in_features=133, out_features=256, bias=True)
      (task_proj): Linear(in_features=128, out_features=256, bias=True)
      (value_proj): Linear(in_features=133, out_features=256, bias=True)
      (out_proj): Linear(in_features=256, out_features=256, bias=True)
    )
    (fusion_proj): Sequential(
      (0): Linear(in_features=256, out_features=256, bias=True)
      (1): ReLU()
      (2): Linear(in_features=256, out_features=256, bias=True)
    )
  )
)
2026-04-03 04:06:10 [TAPT] DEBUG - Number of parameters = 2,322,037
2026-04-03 04:06:10 [TAPT] DEBUG - Moving model to cuda
2026-04-03 04:06:13 [TAPT] INFO - Optimizer: Differential learning rates (KANO + TAPT)
2026-04-03 04:06:13 [TAPT] INFO - Scheduler: NoamLR (differential LR)
2026-04-03 04:06:13 [TAPT] INFO - 
================================================================================
…
